…
wandb: Tracking run with wandb version 0.16.6
wandb: Run data is saved locally in /tmp/wandb/run-20240916_131029-dgrgorqm
wandb: Run `wandb offline` to turn off syncing.
wandb: Syncing run method=train1 + k=5
wandb: ⭐️ View project at https://wandb.ai/myhakureimu/Hypothesis%20Testing%20test%20n%3D4%20m%3D16%7C16
wandb: 🚀 View run at https://wandb.ai/myhakureimu/Hypothesis%20Testing%20test%20n%3D4%20m%3D16%7C16/runs/dgrgorqm
***** Hypothesis Testing test *****
***** m=16_n=4 *****
***** modelName=nano_depth=8_dim=128_heads=2 *****
***** lr=0.0005_wd=0.1_BS=32_Step=512_EP=4 *****
4 16 5 512
number of parameters: 1.59M
NanoGPT(
  (_read_in): Linear(in_features=5, out_features=128, bias=True)
  (ln_f): LayerNorm()
  (transformer): ModuleDict(
    (wpe): Embedding(512, 128)
    (h): ModuleList(
      (0-7): 8 x Block(
        (attn): CausalSelfAttention(
          (c_attn): Linear(in_features=128, out_features=384, bias=True)
          (c_proj): Linear(in_features=128, out_features=128, bias=True)
          (attn_dropout): Dropout(p=0.0, inplace=False)
          (resid_dropout): Dropout(p=0.0, inplace=False)
        )
        (ln_1): LayerNorm()
        (mlp): MLP(
          (c_fc): Linear(in_features=128, out_features=512, bias=True)
          (c_proj): Linear(in_features=512, out_features=128, bias=True)
          (dropout): Dropout(p=0.0, inplace=False)
        )
        (ln_2): LayerNorm()
      )
    )
    (ln_f): LayerNorm()
  )
  (_read_out): Linear(in_features=128, out_features=1, bias=False)
)
******** EP = 1 / 4 *******
  0%|          | 0/512 [00:00<?, ?it/s]train 0.698 0.506:   0%|          | 0/512 [00:00<?, ?it/s]train 0.686 0.544:   0%|          | 0/512 [00:00<?, ?it/s]train 0.713 0.515:   0%|          | 0/512 [00:00<?, ?it/s]train 0.712 0.519:   0%|          | 0/512 [00:00<?, ?it/s]train 0.712 0.519:   1%|          | 4/512 [00:00
…
